…
- 2s 907us/step - loss: 0.4019 - accuracy: 0.8569 Epoch 5/5 1875/1875 [==============================] - 2s 973us/step - loss: 0.3873 - accuracy: 0.8622 . &lt;keras.callbacks.History at 0x7f38111302b0&gt; . net1.evaluate(XX,yy) . 313/313 [==============================] - 0s 835us/step - loss: 0.4163 - accuracy: 0.8504 . [0.41634100675582886, 0.8503999710083008] . net1.summary() . Model: &#34;sequential_6&#34; _________________________________________________________________ Layer (type) Output Shape Param # ================================================================= flatten_6 (Flatten) (None, 784) 0 dense_22 (Dense) (None, 500) 392500 dense_23 (Dense) (None, 500) 250500 dense_24 (Dense) (None, 500) 250500 dense_25 (Dense) (None, 500) 250500 dense_26 (Dense) (None, 10) 5010 ================================================================= Total params: 1,149,010 Trainable params: 1,149,010 Non-trainable params: 0 _________________________________________________________________ . - 두번째 시도 . net2 = tf.keras.Sequential() net2.add(tf.keras.layers.Conv2D(30,(2,2),activation=&#39;relu&#39;)) net2.add(tf.keras.layers.MaxPool2D()) net2.add(tf.keras.layers.Conv2D(30,(2,2),a
…
=] - 2s 989us/step - loss: 0.3217 - accuracy: 0.8838 Epoch 5/5 1875/1875 [==============================] - 2s 901us/step - loss: 0.3053 - accuracy: 0.8878 . &lt;keras.callbacks.History at 0x7f3234110fd0&gt; . net2.evaluate(XX,yy) . 313/313 [==============================] - 0s 837us/step - loss: 0.3438 - accuracy: 0.8736 . [0.3437994122505188, 0.8736000061035156] . net2.summary() . Model: &#34;sequential_8&#34; _________________________________________________________________ Layer (type) Output Shape Param # ================================================================= conv2d_2 (Conv2D) (None, 27, 27, 30) 150 max_pooling2d_2 (MaxPooling (None, 13, 13, 30) 0 2D) conv2d_3 (Conv2D) (None, 12, 12, 30) 3630 max_pooling2d_3 (MaxPooling (None, 6, 6, 30) 0 2D) flatten_8 (Flatten) (None, 1080) 0 dense_28 (Dense) (None, 10) 10810 ================================================================= Total params: 14,590 Trainable params: 14,590 Non-trainable params: 0 _________________________________________________________________ . 14590/ 1149010 . 0.012697887746842934 . c1, m1, c2, m2, flttn, dns = net2.layers . print(X.shape) # 입력이미지 = 2D print(c1(X).shape) #2D print(m1(c1(X)).shape) #2D print(c2(m1(c1(X))).shape) #2D pri
…
